trained_dcnn.pth (torch, 97427 bytes, 7 tensors)

features.0.weight f4 [16, 1, 3, 3]
000000 ab 9e 0c 3e dc 13 10 3e 92 0a c5 3e 9a 1a b6 bd
       0.13732402 0.14070076 0.38484627 -0.088917926
000010 04 32 21 be a2 6f c2 3e d2 f8 79 3e 44 26 8d be
       -0.15741736 0.37975794 0.24411324 -0.27568257
000020 04 d0 93 be 50 24 fe 3d a0 06 2a be 48 f3 6d 3d
       -0.2886964 0.1240927 -0.1660409 0.05809334
000030 80 3f b3 bc f6 5e d4 bd 55 b0 91 3e d4 da df 3d
       -0.021880865 -0.10369675 0.28454843 0.1093041
000040 b0 71 cd 3d 1b 19 80 be e0 5f c2 bd 1d ae 33 3e
       0.1003145 -0.25019154 -0.09490943 0.17546888
000050 de 88 49 3e 73 71 85 3d 0b 0c 97 be ac 96 1c be
       0.19681117 0.06515779 -0.29501376 -0.15291852
000060 9f 7a b6 3e 9f 71 99 3e 6a f1 4a 3e c7 c9 5b be
       0.35640427 0.299695 0.19818655 -0.2146369
000070 89 51 3f be ef dd 05 3e 8f 8a 96 be 19 a5 43 bd
       -0.18683447 0.13072942 -0.29402587 -0.04776487
000080 af a9 09 3e f0 b1 00 3e 8c bc 24 3e a7 4f d6 3c
       0.13443635 0.12567878 0.1608755 0.026161028
000090 32 fd 92 3e 12 ba 7a be 44 19 2e bd 36 54 27 bd
       0.28708798 -0.24485043 -0.042504564 -0.040851794
0000a0 a4 c4 81 3e d2 91 1b be b1 5e 9a 3e 96 ac 24 be
       0.25345337 -0.15192345 0.3015037 -0.16081461
0000b0 76 e0 2a bd 9b 6c ab 3e 8e 2e da 3e 4c 5b 4b 3e
       -0.04171797 0.33481297 0.42613643 0.19859046
0000c0 90 50 bc 3c 1f ee b0 3e 76 e6 c0 3d 06 a7 85 3e
       0.022987634 0.34556672 0.09418957 0.2610399
0000d0 91 39 58 3e 36 51 95 3d 7a 39 c5 3e 01 21 7c 3e
       0.2111571 0.072908804 0.38520414 0.24621965
0000e0 9f 25 c9 3e e0 38 c2 3e 3e 54 11 3e 9b db 99 bd
       0.39286515 0.37934017 0.14192292 -0.075125895
0000f0 e8 46 86 bd f4 b8 b7 3b bb 7a 4d bd 88 40 82 3d
       -0.06556493 0.005606765 -0.050165873 0.063599646
000100 e3 cd b4 3e c6 33 7c 3e 69 c3 f7 3d 2d 86 50 3e
       0.3531333 0.24629125 0.120978184 0.20363684
000110 41 24 25 be 7c b9 23 3e 17 4d a3 3e d4 54 07 3e
       -0.16127111 0.15988725 0.31894752 0.13215953
000120 35 35 c6 3c b6 d7 8a 3e a6 b6 96 be 75 de 57 3e
       0.024195293 0.271177 -0.29436225 0.21080954
000130 28 3f 77 bd b5 bd a5 be fb cd 48 3e f8 0b 9f bd
       -0.060362965 -0.32371297 0.19609825 -0.07765955
000140 6b 03 d1 bd 51 54 4a be b3 b7 1a be 0d 2a a3 bd
       -0.1020573 -0.19758727 -0.15109138 -0.07967005
000150 a5 53 b0 be 0e 7d 0d 3e eb 47 df 3c d3 68 14 3e
       -0.34438816 0.13817236 0.027255973 0.14493112
000160 e1 e5 b1 3e a8 cb 63 bd ce d9 4c be 3e a5 5d be
       0.34745696 -0.055614144 -0.20004961 -0.21645066
000170 80 29 3c bd 5c e4 84 bd b0 14 f3 3d b0 26 c2 3c
       -0.045938015 -0.064888686 0.1186918 0.023700088
000180 1c 75 e3 3d b3 f0 2d be 12 f2 92 be 7b 93 b1 3d
       0.11106321 -0.1698635 -0.2870031 0.08670708
000190 a0 d6 02 3e d4 d2 0e be c2 b6 45 bd 00 f1 2a bc
       0.12777185 -0.13947612 -0.048269995 -0.010433435
0001a0 0b f3 97 be ac 79 b5 3e 5d b2 76 3e 05 56 9a be
       -0.29677615 0.3544439 0.24091478 -0.30143753
0001b0 bd a4 9b be 1f dc a1 3e 2d bc a0 3e 9f 4d 8d be
       -0.30399123 0.31613252 0.31393567 -0.27598283
0001c0 1a f5 db 3d 86 47 24 be 1a b7 5e be ae 33 45 be
       0.10740109 -0.16042909 -0.21749535 -0.19257995
0001d0 34 02 80 3d d9 c6 b0 3e bf 38 45 3e 5a 34 8a be
       0.0625042 0.3452671 0.19259928 -0.26993066
0001e0 d3 3e 63 3e fd e5 b0 3e 81 9a 8e 3e 32 9f ab 3e
       0.22191934 0.34550467 0.27852252 0.33519894
0001f0 46 ee 2b be 7c f9 11 be ae 95 85 3e 8c 67 49 be
       -0.16790113 -0.14255327 0.2609076 -0.19668406
000200 31 34 53 bd 59 c7 9f 3e c9 3a 24 3e 74 82 69 bd
       -0.051563445 0.31206778 0.1603805 -0.057009175
000210 26 ba 51 3e b9 79 d8 bd 7e 65 14 be c9 ee 1f 3e
       0.20481166 -0.10570092 -0.14491841 0.15618433
000220 cd 96 00 be df 20 74 3e 6f 82 3a 3e 22 80 67 3e
       -0.12557526 0.23840664 0.18213819 0.22607473
000230 d0 33 7c 3e 0a 74 7a 3d b6 68 fc bd 63 30 9d be
       0.2462914 0.06114582 -0.123246595 -0.3070098

features.0.bias f4 [16]
000000 87 3a 9e bd 72 8c 8f be ae dc 54 3e 85 90 b0 3d
       -0.07726007 -0.2803684 0.20787308 0.08621315
000010 5c 5d df bd 13 a8 50 bd 38 73 67 3e 02 7a 2f be
       -0.10906479 -0.050941538 0.22602546 -0.17136386
000020 a3 5c c6 3d 34 b7 ae 3d 48 ec 38 bd 41 dc e3 bc
       0.09685638 0.08531037 -0.04514721 -0.027814986
000030 b0 cd 39 3e 97 76 d8 bd 70 c0 5c be e7 c5 03 3d
       0.1814487 -0.10569494 -0.21557784 0.032171156

features.3.weight f4 [32, 16, 3, 3]
000000 63 fa 67 bd 60 74 ae bd 4b 2b 85 bd 64 ce 8a 3d
       -0.05663527 -0.085182905 -0.06502398 0.06777647
000010 9b 51 54 bd 20 cc ff bd 7a 37 e4 3d ec 41 c4 bd
       -0.051835638 -0.12490106 0.11143394 -0.09582886
000020 c7 69 ab bd ec 41 c2 3c 00 70 01 bb 26 77 af bc
       -0.08369785 0.023713075 -0.0019750595 -0.02141912
000030 e0 c1 37 bc 08 1f 41 bd c2 7b 60 3d 00 f5 f3 bb
       -0.011215657 -0.047148734 0.054805525 -0.0074449778
000040 d3 b0 0e bd 20 07 3b bd 54 fe 5c 3d 11 40 44 bd
       -0.0348366 -0.04566109 0.053953484 -0.04791266
000050 1a 4a 9e 3c 18 ae 8f 3c 27 5d a3 bd cf 19 fa 3c
       0.019322444 0.017539069 -0.07976752 0.030529885
000060 54 1d 22 3d ea c1 b7 3c c9 bb 81 bd ff ad 35 be
       0.03957875 0.022431333 -0.06334645 -0.17742155
000070 c1 2e 9f bc 91 87 99 bc 96 ff a8 bd b4 98 9c 39
       -0.019431474 -0.0187414 -0.08251874 0.0002986841
000080 05 25 57 3c 4d fb 47 be 84 6d 25 bc f4 e9 69 bd
       0.013131385 -0.19529457 -0.010096911 -0.05710788
000090 3d 00 7f 3e aa 74 81 3e 75 63 b2 3e ca f2 b6 3e
       0.24902435 0.2528432 0.34841505 0.35732108
0000a0 96 2d 83 3e 7f a0 63 3e ce e3 a6 3e 01 c4 a8 3e
       0.25620717 0.22229193 0.32595676 0.3296204
0000b0 70 d7 9b 3e 51 95 9d bc 7a 85 b8 3d 0f dd 62 bd
       0.30437803 -0.019236239 0.09009834 -0.0553866
0000c0 b0 a0 d0 39 05 65 42 bc 41 f2 b4 bc 7d 38 b5 3d
       0.00039792573 -0.011864905 -0.022088172 0.08848665
0000d0 15 b6 ad bc 6a f2 c0 bd a0 cf 07 3d 3a f7 9a bd
       -0.021204988 -0.09421237 0.03315699 -0.07566686
0000e0 84 79 a4 bd 42 27 39 3d 1f e2 b3 3d 07 6c 75 bd
       -0.0803099 0.045203455 0.087833636 -0.059917476
0000f0 f5 76 9e 3d 69 36 3f bd 6a d8 48 bd 1d 1f f7 3d
       0.07737533 -0.04668275 -0.049034514 0.12066481
000100 b2 44 9a 3c bd dc c1 bd 44 2d 30 3c 0d d7 94 3c
       0.018831585 -0.094659306 0.01075298 0.01816895
000110 0a d2 4b bc 97 d2 c6 3d 11 39 57 bc 3e 07 e4 bd
       -0.012440214 0.097081356 -0.013136164 -0.11134194
000120 a1 93 20 3e d6 96 cf 3d e4 c4 37 3e b1 6a 8c 3d
       0.15681316 0.101361915 0.17946202 0.06856287
000130 45 b2 26 3e 5e f7 34 3e 10 1e 6e 3e 26 ab 48 3e
       0.16278942 0.17672488 0.23253655 0.19596538
000140 34 0b ec 3d a8 b4 b2 bc 98 1d 15 bd 2f f9 b9 bc
       0.11525574 -0.02181466 -0.036405176 -0.022701828
000150 48 8e 10 be 25 ca e9 bc 1b b3 f4 bc e8 e7 0d be
       -0.14116776 -0.028538773 -0.02987056 -0.13857996
000160 1e e6 c5 bd 3e 4f 2a bd 08 dd 5c bd 48 f0 4a bc
       -0.09663032 -0.041579477 -0.05392173 -0.012386389
000170 a0 3c 06 bb 4e 73 66 3d 9f 10 8c bd 9f 0c 92 3d
       -0.0020482913 0.056262307 -0.06839108 0.071313135
000180 8d 98 9d 3d 46 07 a5 bd 72 cb 5b 3d d0 43 aa 3e
       0.076951124 -0.08058028 0.053660817 0.33254862
000190 8c da 7c 3e 9f ce ac 3e db dc 98 3e 6b db a6 3e
       0.24692744 0.3375139 0.29856 0.32589278
0001a0 8e ce 31 3e 94 5c 5b 3e 4a 58 63 3e 2b 5b 31 3e
       0.1736395 0.21422035 0.22201648 0.17319934
0001b0 fc 87 ae bd 48 51 fa bd ce 2b ed 3d 2a 4b 02 be
       -0.08522031 -0.122225344 0.11580621 -0.12723985
0001c0 c2 64 87 3a 00 fc ae 3c 71 43 92 bd 56 8f a6 bc
       0.0010329711 0.021360397 -0.0714177 -0.02033202
0001d0 f6 89 1a bd 12 d9 ab 3d 70 8a bf 3d 52 89 c7 bd
       -0.037729226 0.08391012 0.09352577 -0.09742989
0001e0 33 15 ba 3d 11 00 4a bd 54 a7 32 bd 1c 9a 4b 3c
       0.09086075 -0.04931647 -0.043616608 0.012426879
0001f0 10 5f 8d bd 41 94 99 bc ba e4 9e 3e 70 56 88 3e
       -0.06902897 -0.01874745 0.3103388 0.26628447
000200 6a d0 6e 3e 20 3c 75 3e 5c 5c a3 3e 1c d5 ea 3d
       0.23321691 0.23948717 0.31906402 0.11466429
000210 28 5b 80 3e 4e 5a 5f 3e 7b 4d 16 3e 9f 08 a8 3d
       0.25069547 0.21811792 0.14677994 0.08204769
000220 84 1b 88 3d 50 41 e5 3c 9b 84 d5 ba 6f 12 1f bd
       0.06645873 0.027985245 -0.001629013 -0.03883594
000230 68 cf 21 bd a7 60 61 bb 35 f7 fb 3b 08 50 6c 3c
       -0.03950444 -0.0034389885 0.0076893815 0.014423378
000240 a6 9a c8 3d 5b a6 a9 3d aa 81 52 bd 4e 84 5e 3d
       0.09795122 0.08283683 -0.05139319 0.054325394
000250 d8 04 a7 bd 71 a7 1b bd 1a 04 66 bc 60 8f e9 bc
       -0.08155221 -0.03800148 -0.014039064 -0.02851075
000260 2c 4d a1 bd c8 35 13 bd d6 b8 43 3d 66 91 59 bd
       -0.078760475 -0.03593996 0.047783695 -0.05311718
000270 10 9c 86 3c ec 58 f6 3c df 6f 82 3d 40 5b d2 3a
       0.016431838 0.030071698 0.06368994 0.0016048923
000280 55 00 93 3d d0 04 a7 bd 50 f5 57 bd 25 90 99 bd
       0.07177798 -0.08155215 -0.052724183 -0.074981965
000290 f8 39 24 bc f5 e9 80 bd dc 16 42 3d 45 d7 50 bd
       -0.010023586 -0.06294624 0.04738508 -0.050986547
0002a0 ac 6c f7 bb 78 62 64 3d 31 e6 cb bd a0 8d 53 3d
       -0.0075507965 0.05575797 -0.09956015 0.051648736
0002b0 74 74 b8 bd 53 ae 7d bc e0 91 f5 bc 1f ee b9 bd
       -0.09006587 -0.015483457 -0.029976785 -0.09078621
0002c0 e0 98 e5 bc 74 29 07 bc f6 e9 69 3c e4 97 28 3d
       -0.028026998 -0.008249629 0.014276972 0.04116048
0002d0 61 78 25 3e c5 66 49 3e 38 9e b9 3e 3d 2b 20 3e
       0.16159202 0.1966811 0.36253524 0.15641494
0002e0 b8 3c b5 3e 46 7b 9e 3e 87 98 c0 3d 5f a8 87 3e
       0.35397887 0.30953425 0.09404092 0.26495644
0002f0 61 74 7d 3e e1 01 6b bd a3 0e 15 3d e2 00 b5 bc
       0.24751426 -0.05737484 0.03639091 -0.022095148
000300 54 cc 2a bd 3e d9 9c 3d 95 72 1e 3d cc 24 9f 3d
       -0.04169877 0.07658623 0.038683493 0.0777069
000310 e6 78 6b bc c1 6c eb bc d3 06 59 bd 47 09 83 3c
       -0.014372086 -0.028738381 -0.052985024 0.015995635
000320 62 b2 8c 3d e0 82 74 bc 7a 1a e5 bc 96 56 46 3d
       0.06869961 -0.014923781 -0.027966727 0.04842242
000330 fa eb 0c bc 77 db c1 3b 7b d8 8c 3d b0 31 8d 3d
       -0.008601183 0.005916055 0.06877228 0.06894243
000340 0f 89 ad 3d 75 e5 ab bd 8d 76 4f 3a 20 bb 8d 3d
       0.084734075 -0.08393375 0.0007914089 0.06920457
000350 1e 2c 70 3d 9e fd b6 bd 2a 81 4d 3d ee 64 80 bd
       0.058635823 -0.089350924 0.05017201 -0.06269251
000360 f0 43 49 bd a5 65 da bc 02 7c 59 3b f3 00 ef bb
       -0.049137056 -0.026659796 0.0033185487 -0.0072938143
000370 ac 49 21 3d 6c 1b 9f 3c 05 32 9c 3d d5 a3 0b bc
       0.0393769 0.019422255 0.07626728 -0.008522947
000380 56 a1 de 3d 95 b3 bc bd 2d d1 f4 b9 5b 42 de bd
       0.10870616 -0.0921394 -0.00046695155 -0.108525
000390 ed 07 a7 bd 75 e3 a1 bc ef e2 77 bd 03 6c c8 bd
       -0.081558086 -0.01976178 -0.060519155 -0.097862266
0003a0 c7 fd 2e bd e7 b1 a9 bd 00 01 4b bd f2 bd 49 3d
       -0.04272249 -0.08285885 -0.0495615 0.04925341
0003b0 10 27 a9 3b c0 c8 c0 bc c3 a7 88 3d c0 f8 27 3c
       0.0051621273 -0.023533225 0.06672623 0.010252178
0003c0 0e da 76 3d 20 55 0d 3d 80 31 e0 3b 0f 96 22 3d
       0.060266547 0.03450501 0.0068418384 0.03969389
0003d0 9e bf 23 3e 9e 75 98 3e 43 d6 dc 3d e8 41 ac 3e
       0.15991065 0.29777235 0.10783055 0.33644032
0003e0 ba b2 94 3e cd e5 05 3e 32 66 d4 3d e6 03 41 3e
       0.29042608 0.13075943 0.10371055 0.18849143
0003f0 50 6b 41 3c 63 17 00 3d b5 42 1e bd 03 31 9d 3d
       0.01180537 0.031272303 -0.038637836 0.07675364

features.3.bias f4 [32]
000000 37 71 0b bd 63 75 f0 3c 7a 9f 04 bd 32 24 e8 bd
       -0.034043517 0.02935285 -0.03237865 -0.11335029
000010 95 90 cf 3c 0d 9c 8a bb 4e 44 dc 3d 88 96 ab 3d
       0.025337497 -0.0042300285 0.107552156 0.08378321
000020 d1 5d 33 bc 0c fe 8e bd 69 c8 59 3c 3a 2b f5 bc
       -0.010947661 -0.06982049 0.01329241 -0.029927839
000030 b1 c8 cb 3d da e9 b8 bc 9d 79 8b bd 31 48 a4 bd
       0.09950388 -0.022572447 -0.06810305 -0.08021582
000040 a8 69 a0 3d b2 94 03 bd 80 09 6b 3d 14 fa 7e bd
       0.07832652 -0.03212423 0.057382107 -0.06225021
000050 bb 4f 8d bd 95 91 45 bd 08 45 1f bd 4a 8d bd 3c
       -0.06899973 -0.04823454 -0.038884193 0.023138661
000060 63 59 a7 bd 4b 35 f1 bc b1 82 b7 bd 6f 1c da 3d
       -0.08171346 -0.029444357 -0.08960474 0.106499545
000070 0b c3 4f 3d 8e 3b 52 bd a1 1e e0 3b 26 ae 22 3b
       0.050723117 -0.051326327 0.0068395888 0.002482304

features.6.weight f4 [64, 32, 3, 3]
000000 3d c8 9c 3e fb 61 c1 3e 57 4f a3 3e f4 c6 c1 3e
       0.3062152 0.37770066 0.3189647 0.37847102
000010 a6 8a b9 3e ec 1c c0 3e ab 8a a7 3e 0c 5d a1 3e
       0.36238593 0.37522066 0.32722983 0.31516302
000020 cf 89 b7 3e a8 0a de 3d 04 9e a5 3d 9e 3b b7 3d
       0.35847327 0.10841876 0.0808678 0.08946918
000030 02 f9 f6 3d cc 60 23 3d 21 a3 82 3d 82 45 a1 3d
       0.12059213 0.039887235 0.063787706 0.07874586
000040 95 7b 8c 3d 4a ff 37 3d c0 ec 2c be 5e 47 34 be
       0.06859509 0.044921197 -0.16887188 -0.1760535
000050 02 9a 5e be e5 0f 2e be 5f 69 21 be 18 7c 27 be
       -0.21738437 -0.16998251 -0.15762852 -0.16355932
000060 c1 34 15 be b4 78 5c be 12 4d 27 be 9f 4f 57 3d
       -0.14570905 -0.2153042 -0.16337994 0.052566167
000070 42 16 3d 3c 89 5d 43 3b 61 63 22 bc 34 89 f9 ba
       0.011540951 0.002981039 -0.009911389 -0.0019038082
000080 92 ab a8 39 de 2f cd bc 99 9d 18 bd 80 80 c3 b9
       0.00032171287 -0.025047239 -0.03725967 -0.00037289038
000090 23 b8 c1 3d 55 b6 a3 3d 79 d1 26 3d 76 0e 77 3d
       0.094589494 0.079937615 0.040727112 0.060316525
0000a0 5c 40 42 3d 8e a2 dc 3b 09 48 70 3d 95 81 82 3d
       0.04742466 0.006733245 0.058662448 0.06372372
0000b0 b6 41 11 3d f6 8e 81 3d ad 81 4f 3d 43 e2 c3 3a
       0.035463057 0.06326096 0.050660778 0.0014944751
0000c0 f2 20 36 3d 95 6f 5b 3d bd ef 9a 3d 97 68 2c bc
       0.044465013 0.05357321 0.07565258 -0.010522983
0000d0 9a ca d0 bc 51 c2 01 3c ce 06 74 3c 71 5c 18 bd
       -0.025487233 0.007919864 0.0148942005 -0.037197534
0000e0 16 25 6d bb 76 45 0c bd aa 6a 14 bd 46 46 e5 3c
       -0.0036185435 -0.03424593 -0.036234535 0.02798761
0000f0 52 f2 20 3d a5 34 92 3c ac 0c 57 3d 3c fc 4c 3c
       0.039293595 0.017847368 0.05250232 0.012511309
000100 4a 0c 07 3d 63 6c 90 3d 13 85 98 3d a3 2f 29 3d
       0.032970704 0.07051923 0.07447257 0.041305196
000110 03 c5 c5 bc 29 5e 2d 3d 54 36 8d 3d fc 17 45 3d
       -0.024141794 0.042326126 0.06895128 0.048118576
000120 c2 fd 49 bd 31 79 1f bc bc fe a7 bc aa f3 42 bd
       -0.049314268 -0.009733484 -0.020507209 -0.047595657
000130 1c 72 2e bd c1 96 37 3d 44 49 0e bd 61 14 00 bd
       -0.042589292 0.044821505 -0.03473784 -0.031269435
000140 57 94 ae bc 68 61 cd bb 63 7c 0f 3d 81 c8 6d bd
       -0.021310968 -0.0062677152 0.035030734 -0.058052544
000150 56 dc d7 bc 0c 6a 1d bc fa f0 85 3c e4 eb 05 bd
       -0.026350182 -0.009607803 0.016350258 -0.032695666
000160 b2 3d 83 bc ce c7 01 bd 20 92 40 3c ad a9 5d 3d
       -0.01602063 -0.03168469 0.011753589 0.054116894
000170 af 23 c1 39 c9 a5 85 3c 93 9b 80 bc 9e 5d 27 3d
       0.00036838415 0.016314404 -0.015699184 0.040860765
000180 1d 12 3f bc 98 cd 1c 3d 08 1c 05 bd 76 3c 73 3d
       -0.011662033 0.038282007 -0.032497436 0.059383832
000190 5f fb 65 3d 6e 51 f8 bb 76 5d e8 3c 59 fb 29 ba
       0.05614793 -0.0075780666 0.028364878 -0.0006484292
0001a0 96 34 10 3c 2a da 85 3d 8f 5a 3d 3b 48 de 92 3d
       0.0088016 0.06535752 0.0028893088 0.07171303
0001b0 57 fd 4a 3d 4c 17 92 3d 51 7c 0d bb 80 c3 08 bd
       0.04955801 0.0713335 -0.002158899 -0.03338957
0001c0 ab f3 64 3d 43 f2 ae 3b 34 3b f2 ba a5 ce fe bb
       0.055896442 0.0053389384 -0.0018480779 -0.007776099
0001d0 10 79 9c 3d 78 ed 0f bd 27 91 c4 3c b1 41 be 3c
       0.07640278 -0.035138577 0.023994995 0.023224683
0001e0 12 f0 80 bc ba 1f 2a 3d 9a 1b 2e 3d ee 86 36 3d
       -0.015739474 0.041534163 0.04250679 0.044562273
0001f0 e2 dc b2 3c fa 6c b2 3c 06 b9 88 3c e9 0f 9a bc
       0.02183384 0.02178048 0.016689789 -0.018806415
000200 38 f1 40 bd 00 24 e2 3a a3 c2 b1 3b 61 07 15 3d
       -0.047105044 0.001725316 0.005424814 0.03638399
000210 14 a5 22 3c 41 fa d4 3a a7 39 ab bc 5d 64 22 3d
       0.009927053 0.0016248898 -0.020901514 0.039646495
000220 ca da 31 3d bf 87 4a 3d dd 51 8b bc e7 bd 27 bd
       0.043421544 0.049445864 -0.017006809 -0.04095259
000230 aa aa 73 bd 69 b4 97 bd bb 79 7d bd 1e 2b 09 bd
       -0.05948893 -0.074074574 -0.06188367 -0.033488385
000240 b1 03 a2 3d e2 d8 ba bc ca 4a 82 3c d5 03 65 3d
       0.0791086 -0.022808496 0.015904803 0.055911858
000250 e7 89 6e 3d 32 8e 0f 3d b9 f1 b2 3c a0 96 13 3d
       0.058236983 0.035047717 0.021843778 0.03603232
000260 5e e7 f1 ba 28 2e af 3c ce b1 e5 3c 4f 19 6d 3b
       -0.0018455794 0.021384314 0.028038885 0.0036178415
000270 b9 e0 02 3d a6 b3 db 3c f6 45 81 bd 23 aa 11 bd
       0.031952593 0.026819061 -0.06312172 -0.035562646
000280 49 69 7b bd 9c 9e 1f 3c 4d a9 ea bc 9b 9b 17 3d
       -0.061379705 0.009742405 -0.028645182 0.03701363
000290 ea 34 bf bc b6 0d 5b 3d 5c 59 94 bc 8b 39 f0 bc
       -0.023340661 0.053479873 -0.018109016 -0.029324314
0002a0 ca 5c e5 3a 6a 10 33 3d f8 27 09 3a df 21 4c 3c
       0.0017498967 0.043716826 0.0005232091 0.012459247
0002b0 54 33 d0 bb 7e dc 24 bd 41 b3 68 bc 29 c3 e5 3c
       -0.006353775 -0.04024934 -0.014202894 0.028047161
0002c0 96 bc 3a bd d0 66 19 3d 16 a4 75 3b cc 57 8f 3c
       -0.045590006 0.037451565 0.0037481836 0.01749792
0002d0 92 3c 11 bb e2 e9 5c 3d 94 a2 08 bd f7 53 86 bc
       -0.0022161347 0.053933986 -0.03335817 -0.01639746
0002e0 cf 54 3b 3d 7a 7b b7 bc 52 cf 5e 3d ed 5e 75 bc
       0.045735177 -0.022397745 0.054396935 -0.014976245
0002f0 c7 55 4a bd ba ad 26 3d 7c be 0b 3d 37 ab 27 3c
       -0.04939821 0.040693022 0.034117207 0.010233692
000300 4d 7c 8d bd e8 d0 9c bb fc 23 01 bd 21 43 10 3d
       -0.06908474 -0.0047856458 -0.031528458 0.03522027
000310 bf 7e d6 bb 20 e2 cc bc 7b 4d 13 bd 42 37 cf 39
       -0.006545871 -0.025010169 -0.035962563 0.00039523287
000320 62 fd 8b 3d 8f bc c4 bc a5 1c dc 3c 61 08 b7 bc
       0.06835438 -0.024015693 0.026869128 -0.022342863
000330 f4 5f 94 3c 8c fd 18 3c 9e 81 8f 3c 8d ce bc 3b
       0.01811216 0.009337794 0.017517861 0.0057619275
000340 76 a4 08 bc f3 f0 59 bc af 6b 06 3d c4 47 5c 3c
       -0.008339992 -0.013302076 0.03281754 0.013444845
000350 26 e4 c4 bc 68 c4 03 3d 5f 18 79 3d 2b d9 10 3d
       -0.02403457 0.03216973 0.060814258 0.035363358
000360 1b 5a 8e 3e ff 91 77 3e f2 a1 99 3e 58 b4 70 3e
       0.2780312 0.24176787 0.30006367 0.23506296
000370 c5 96 93 3e c9 e2 a0 3e 1b c6 7e 3e 7c ea 67 3e
       0.28825966 0.31423023 0.24880259 0.22648042
000380 0b aa 8d 3e 95 61 f5 bb a8 32 0d 3d da 1c d2 bc
       0.27668795 -0.0074884393 0.034472138 -0.025648523
000390 e8 94 2a 3d a4 c5 2c 3d 82 0a f8 3c 18 57 1a 3c
       0.041645914 0.042180672 0.030278448 0.009420179
0003a0 b1 86 a5 bc 57 8f 2c 3d ff e2 89 3e 87 06 87 3e
       -0.020205827 0.042128887 0.26930997 0.26372167
0003b0 d0 5c aa 3e 35 27 86 3e 5c 1e 9f 3e 24 06 a0 3e
       0.33273935 0.26201788 0.3107785 0.31254685
0003c0 57 59 83 3e 3f 3a a6 3e 3b 67 90 3e 26 d1 71 3d
       0.25654098 0.32466313 0.2820376 0.05903735
0003d0 91 5d 3e bc 44 45 4a 3d c7 f3 99 3d 5f 57 43 b9
       -0.011618988 0.049382463 0.075172 -0.00018629197
0003e0 0b 1b ac 3d f4 74 d5 bb b4 bf 42 3d b2 e9 4c 3d
       0.084035955 -0.006514186 0.047546104 0.050027557
0003f0 86 f6 fd 3c 59 41 4c 3d 75 4b 42 3d 10 4a 71 3b
       0.03100134 0.049867008 0.047435243 0.0036817826

features.6.bias f4 [64]
000000 fe 62 f8 3c 40 1b 0c 3d 78 85 08 3c d7 d7 ae bc
       0.03032064 0.034205675 0.008332603 -0.021343155
000010 bf 70 82 bc 39 a0 31 3d 30 89 32 3d 75 a3 1c 3d
       -0.015922902 0.04336569 0.043587863 0.038241822
000020 23 59 30 bc 43 c7 28 3d 07 e8 03 bd a0 be f7 bc
       -0.010763439 0.041205656 -0.0322037 -0.030242264
000030 c7 f7 55 bd 9a ab 0f bd 5c 03 37 3d 1f 4e 9b bc
       -0.052238252 -0.03507576 0.044680938 -0.01895815
000040 0d 27 54 bc ae 7c 04 3c 2d 94 5e 3b 7d 62 63 bc
       -0.012948764 0.008086367 0.0033962831 -0.013878462
000050 d2 b6 89 3c 33 6d 02 3d 92 ca b4 3c 23 20 91 bc
       0.016810808 0.03184242 0.02206925 -0.01771552
000060 24 13 4a bd 71 92 23 3b 7b be 78 bb 0e 85 47 3d
       -0.04933466 0.0024959112 -0.0037955332 0.048710875
000070 a8 18 16 3d ba b6 33 3d d6 00 38 3d 54 aa 36 bd
       0.036644608 0.043875434 0.044922672 -0.04459603
000080 e4 96 20 bd 74 e3 f7 3b a1 43 92 3c 77 a9 42 3d
       -0.0392064 0.0075649563 0.017854514 0.047524896
000090 06 8f 47 bd c1 c5 46 3c 52 1a 41 3c 65 cf 4a 3d
       -0.048720382 0.012132109 0.01178606 0.049514193
0000a0 7b 42 ed 3b 7b a9 3d 3c d7 2b 9c 3c 3c f9 2d bc
       0.007240591 0.011576052 0.019063873 -0.010618504
0000b0 7d 60 93 3c a7 50 59 bd 6d 15 b7 3c 7d 36 ae 3c
       0.017990345 -0.05305543 0.022349084 0.021266216
0000c0 7d 0b 31 bd 30 ce 79 3d 42 75 21 3d 40 42 fa 3b
       -0.043223847 0.06098765 0.039418466 0.007637292
0000d0 ce 23 0d bb 87 e2 52 3d 62 18 03 3d 9b 11 02 3d
       -0.0021536234 0.051485565 0.032005675 0.03175507
0000e0 73 2c 44 3d f0 3e 08 3c 7e 0f 57 bc 8d 92 c4 bc
       0.047893953 0.008315787 -0.013126252 -0.023995662
0000f0 ec 88 54 3c 18 a8 bc bb 48 e3 16 bd c3 73 c5 bc
       0.012972098 -0.005757343 -0.036837846 -0.024103051

classifier.1.weight f4 [1, 64]
000000 5f f5 2c be a3 e9 2b be 72 26 8d 3d 68 17 16 be
       -0.16890477 -0.16788344 0.068920985 -0.14657366
000010 b2 6f e3 bd 05 5e 3b 3e e0 63 10 be 2d 74 1f 3e
       -0.111052886 0.18297584 -0.141006 0.15571661
000020 2f 3d 3f be f9 de 40 be 8a cf 7b 3e c8 f7 3a be
       -0.18675683 -0.18835057 0.24590889 -0.18258584
000030 cb 71 f1 bd 99 dd 50 3d 36 17 0c 3e 34 37 20 3d
       -0.117892824 0.050992582 0.1368073 0.039115146
000040 f3 5a a4 3d fb bb c5 bd e7 9a 31 be 2d aa 16 be
       0.0802516 -0.09654995 -0.17344247 -0.14713354
000050 7d d1 ab 3d 23 6d 4a be 59 f0 50 be f3 6b 81 3d
       0.08389566 -0.19768195 -0.20404185 0.06319418
000060 0b cc a6 be 68 4a d2 3d 57 a4 50 be ab c3 3e 3e
       -0.32577547 0.10268098 -0.2037519 0.18629329
000070 0f a9 4d be 02 a3 0d 3e 52 f3 1e be 8c 30 0f 3d
       -0.20084022 0.13831714 -0.15522507 0.034958407
000080 0e 89 e0 3d 91 72 43 be 32 aa 4d 3e b6 46 c1 3d
       0.10963641 -0.19086672 0.20084456 0.09437315
000090 e2 bd e5 3d d2 40 4d 3d e5 7b 00 be 74 46 47 be
       0.11217858 0.050110646 -0.12547262 -0.1946047
0000a0 b9 65 e2 bd ae 0d 2b be 0a 2b 45 be ed 6c ed 3a
       -0.11054558 -0.16704437 -0.192547 0.0018114127
0000b0 21 06 ec bd 48 14 ff bd 2d b5 50 be f6 1e 3a be
       -0.115246065 -0.1245504 -0.20381613 -0.18175873
0000c0 b8 30 09 3e e1 7b 26 be a7 a9 31 3e 85 b0 d6 bd
       0.13397491 -0.16258194 0.17349873 -0.10482887
0000d0 50 89 29 be aa f0 13 3e ca bd 2b be 23 f6 56 3e
       -0.16556287 0.14447275 -0.16771618 0.20992331
0000e0 0d cf 09 be bf 01 41 be d9 2e 45 be b1 b8 0a be
       -0.1345789 -0.18848322 -0.19256152 -0.13547017
0000f0 66 86 e0 bd 89 21 ee bd 95 00 4d be 47 70 85 3e
       -0.109631345 -0.1162749 -0.20019753 0.26062223
