unet_pancreas.pth (torch, 2005 bytes, 2 tensors)

weight f4 [2, 10]
00000000: e686 a6bd befe 75be 0760 973e 80d0 d53c
00000010: b84f 3bbd fa31 7d3e c5b2 843e d89d 8bbd
00000020: 1816 5fbd 6042 c7bc 886c 5a3d ee5f 4e3e
00000030: 863d 7a3e 1e43 7d3e 4ed2 5a3e defa 70be
00000040: fb13 0fbe 4a9e 4fbe c0d7 d13d ae62 76be
-0.081311986 -0.24022958 0.2956545 0.026100397 -0.045730323 0.24726096 0.2591764 -0.06817216
-0.05446443 -0.024323642 0.05332616 0.20153782 0.24437532 0.24732634 0.21369287 -0.23533198
-0.13972466 -0.20275226 0.10246229 -0.24061081

bias f4 [2]
00000000: f00e 183e fecf 3dbe
0.14849448 -0.18536374
